Using Keras version 2.6.0
cur =  3
Fin Init
Model: "sequential"
_________________________________________________________________
Layer (type)                 Output Shape              Param #   
=================================================================
rescaling (Rescaling)        (None, 256, 256, 3)       0         
_________________________________________________________________
conv2d (Conv2D)              (None, 254, 254, 16)      448       
_________________________________________________________________
max_pooling2d (MaxPooling2D) (None, 127, 127, 16)      0         
_________________________________________________________________
conv2d_1 (Conv2D)            (None, 125, 125, 32)      4640      
_________________________________________________________________
max_pooling2d_1 (MaxPooling2 (None, 62, 62, 32)        0         
_________________________________________________________________
conv2d_2 (Conv2D)            (None, 60, 60, 64)        18496     
_________________________________________________________________
max_pooling2d_2 (MaxPooling2 (None, 30, 30, 64)        0         
_________________________________________________________________
conv2d_3 (Conv2D)            (None, 28, 28, 128)       73856     
_________________________________________________________________
max_pooling2d_3 (MaxPooling2 (None, 14, 14, 128)       0         
_________________________________________________________________
conv2d_4 (Conv2D)            (None, 12, 12, 256)       295168    
_________________________________________________________________
max_pooling2d_4 (MaxPooling2 (None, 6, 6, 256)         0         
_________________________________________________________________
flatten (Flatten)            (None, 9216)              0         
_________________________________________________________________
dense (Dense)                (None, 512)               4719104   
_________________________________________________________________
dense_1 (Dense)              (None, 29)                14877     
=================================================================
Total params: 5,126,589
Trainable params: 5,126,589
Non-trainable params: 0
_________________________________________________________________
Fin Build_Network
Found 20300 files belonging to 29 classes.
Found 1450 files belonging to 29 classes.
Epoch 1/100
  1/635 [..............................] - ETA: 36:35 - loss: 3.3674 -
…
