Using Keras version 2.6.0
Fin Init
Model: "sequential"
_________________________________________________________________
Layer (type)                 Output Shape              Param #   
=================================================================
rescaling (Rescaling)        (None, 256, 256, 3)       0         
_________________________________________________________________
conv2d (Conv2D)              (None, 250, 250, 16)      2368      
_________________________________________________________________
max_pooling2d (MaxPooling2D) (None, 125, 125, 16)      0         
_________________________________________________________________
conv2d_1 (Conv2D)            (None, 119, 119, 32)      25120     
_________________________________________________________________
max_pooling2d_1 (MaxPooling2 (None, 59, 59, 32)        0         
_________________________________________________________________
conv2d_2 (Conv2D)            (None, 53, 53, 64)        100416    
_________________________________________________________________
max_pooling2d_2 (MaxPooling2 (None, 26, 26, 64)        0         
_________________________________________________________________
flatten (Flatten)            (None, 43264)             0         
_________________________________________________________________
dense (Dense)                (None, 512)               22151680  
_________________________________________________________________
dense_1 (Dense)              (None, 29)                14877     
=================================================================
Total params: 22,294,461
Trainable params: 22,294,461
Non-trainable params: 0
_________________________________________________________________
Fin Build_Network
Found 20300 files belonging to 29 classes.
Found 1450 files belonging to 29 classes.
Epoch 1/30
  1/635 [..............................] - ETA: 27:38 - loss: 3.3670 
…
