Using Keras version 2.6.0
cur =  4
Fin Init
Model: "sequential"
_________________________________________________________________
Layer (type)                 Output Shape              Param #   
=================================================================
rescaling (Rescaling)        (None, 256, 256, 3)       0         
_________________________________________________________________
conv2d (Conv2D)              (None, 254, 254, 32)      896       
_________________________________________________________________
max_pooling2d (MaxPooling2D) (None, 127, 127, 32)      0         
_________________________________________________________________
conv2d_1 (Conv2D)            (None, 125, 125, 64)      18496     
_________________________________________________________________
max_pooling2d_1 (MaxPooling2 (None, 62, 62, 64)        0         
_________________________________________________________________
conv2d_2 (Conv2D)            (None, 60, 60, 128)       73856     
_________________________________________________________________
max_pooling2d_2 (MaxPooling2 (None, 30, 30, 128)       0         
_________________________________________________________________
flatten (Flatten)            (None, 115200)            0         
_________________________________________________________________
dense (Dense)                (None, 512)               58982912  
_________________________________________________________________
dense_1 (Dense)              (None, 29)                14877     
=================================================================
Total params: 59,091,037
Trainable params: 59,091,037
Non-trainable params: 0
_________________________________________________________________
Fin Build_Network
Found 20300 files belonging to 29 classes.
Found 1450 files belonging to 29 classes.
Epoch 1/30
  1/635 [..............................] - ETA: 34:17 - loss: 3.3674 
…
