Using Keras version 2.6.0
cur =  2
Fin Init
Model: "sequential"
_________________________________________________________________
Layer (type)                 Output Shape              Param #   
=================================================================
rescaling (Rescaling)        (None, 256, 256, 3)       0         
_________________________________________________________________
conv2d (Conv2D)              (None, 254, 254, 16)      448       
_________________________________________________________________
max_pooling2d (MaxPooling2D) (None, 127, 127, 16)      0         
_________________________________________________________________
conv2d_1 (Conv2D)            (None, 125, 125, 32)      4640      
_________________________________________________________________
max_pooling2d_1 (MaxPooling2 (None, 62, 62, 32)        0         
_________________________________________________________________
conv2d_2 (Conv2D)            (None, 60, 60, 64)        18496     
_________________________________________________________________
max_pooling2d_2 (MaxPooling2 (None, 30, 30, 64)        0         
_________________________________________________________________
flatten (Flatten)            (None, 57600)             0         
_________________________________________________________________
dense (Dense)                (None, 512)               29491712  
_________________________________________________________________
dense_1 (Dense)              (None, 29)                14877     
=================================================================
Total params: 29,530,173
Trainable params: 29,530,173
Non-trainable params: 0
_________________________________________________________________
Fin Build_Network
Found 20300 files belonging to 29 classes.
Found 1450 files belonging to 29 classes.
Epoch 1/30
  1/635 [..............................] - ETA: 22:03 - loss: 3.3679 
…
