##################### Run 1/1:
Build Network
Model: "sequential"
_________________________________________________________________
Layer (type)                 Output Shape              Param #   
=================================================================
rescaling (Rescaling)        (None, 256, 256, 3)       0         
_________________________________________________________________
random_rotation (RandomRotat (None, 256, 256, 3)       0         
_________________________________________________________________
random_flip (RandomFlip)     (None, 256, 256, 3)       0         
_________________________________________________________________
conv2d (Conv2D)              (None, 254, 254, 16)      448       
_________________________________________________________________
batch_normalization (BatchNo (None, 254, 254, 16)      64        
_________________________________________________________________
max_pooling2d (MaxPooling2D) (None, 127, 127, 16)      0         
_________________________________________________________________
conv2d_1 (Conv2D)            (None, 125, 125, 32)      4640      
_________________________________________________________________
batch_normalization_1 (Batch (None, 125, 125, 32)      128       
_________________________________________________________________
max_pooling2d_1 (MaxPooling2 (None, 62, 62, 32)        0         
_________________________________________________________________
conv2d_2 (Conv2D)            (None, 60, 60, 64)        18496     
_________________________________________________________________
batch_normalization_2 (Batch (None, 60, 60, 64)        256       
_________________________________________________________________
max_pooling2d_2 (MaxPooling2 (None, 30, 30, 64)        0         
_________________________________________________________________
conv2d_3 (Conv2D)            (None, 28, 28, 128)       73856     
_________________________________________________________________
batch_normalization_3 (Batch (None, 28, 28, 128)       512       
_________________________________________________________________
max_pooling2d_3 (MaxPooling2 (None, 14, 14, 128)       0         
_________________________________________________________________
global_average_pooling2d (Gl (None, 128)               0         
_________________________________________________________________
dense (Dense)                (None, 29)                3741      
=================================================================
Total params: 102,141
Trainable params: 101,661
Non-trainable params: 480
_________________________________________________________________
Found 20300 files belonging to 29 classes.
Found 1450 files belonging to 29 classes.
Epoch 1/100
  1/635 [..............................] - ETA: 31:35 - loss: 3.3562 - accuracy: 0.0938
…
