Using Keras version 2.6.0
Fin Init
Model: "sequential"
_________________________________________________________________
Layer (type)                 Output Shape              Param #   
=================================================================
rescaling (Rescaling)        (None, 256, 256, 3)       0         
_________________________________________________________________
conv2d (Conv2D)              (None, 250, 250, 32)      4736      
_________________________________________________________________
max_pooling2d (MaxPooling2D) (None, 125, 125, 32)      0         
_________________________________________________________________
conv2d_1 (Conv2D)            (None, 119, 119, 64)      100416    
_________________________________________________________________
max_pooling2d_1 (MaxPooling2 (None, 59, 59, 64)        0         
_________________________________________________________________
conv2d_2 (Conv2D)            (None, 53, 53, 128)       401536    
_________________________________________________________________
max_pooling2d_2 (MaxPooling2 (None, 26, 26, 128)       0         
_________________________________________________________________
conv2d_3 (Conv2D)            (None, 20, 20, 256)       1605888   
_________________________________________________________________
max_pooling2d_3 (MaxPooling2 (None, 10, 10, 256)       0         
_________________________________________________________________
conv2d_4 (Conv2D)            (None, 4, 4, 512)         6423040   
_________________________________________________________________
max_pooling2d_4 (MaxPooling2 (None, 2, 2, 512)         0         
_________________________________________________________________
flatten (Flatten)            (None, 2048)              0         
_________________________________________________________________
dense (Dense)                (None, 512)               1049088   
_________________________________________________________________
dense_1 (Dense)              (None, 29)                14877     
=================================================================
Total params: 9,599,581
Trainable params: 9,599,581
Non-trainable params: 0
_________________________________________________________________
Fin Build_Network
Found 20300 files belonging to 29 classes.
Found 1450 files belonging to 29 classes.
Epoch 1/50
  1/635 [..............................] - ETA: 26:59 - loss: 3.3668 - 
…
